dig-s0
a_output_actual/dig-s0
File Exists
Model: "sequential"
_________________________________________________________________
 Layer (type)                Output Shape              Param #   
=================================================================
 batch_normalization (BatchN  (None, 32, 20, 3)        12        
 ormalization)                                                   
                                                                 
 conv2d (Conv2D)             (None, 32, 20, 32)        896       
                                                                 
 max_pooling2d (MaxPooling2D  (None, 16, 10, 32)       0         
 )                                                               
                                                                 
 conv2d_1 (Conv2D)           (None, 16, 10, 64)        18496     
                                                                 
 max_pooling2d_1 (MaxPooling  (None, 8, 5, 64)         0         
 2D)                                                             
                                                                 
 conv2d_2 (Conv2D)           (None, 8, 5, 64)          36928     
                                                                 
 max_pooling2d_2 (MaxPooling  (None, 4, 2, 64)         0         
 2D)                                                             
                                                                 
 flatten (Flatten)           (None, 512)               0         
                                                                 
 dense (Dense)               (None, 512)               262656    
                                                                 
 dense_1 (Dense)             (None, 11)                5643      
                                                                 
=================================================================
Total params: 324,631
Trainable params: 324,625
Non-trainable params: 6
_________________________________________________________________
31
(31, 32, 20, 3)
(31, 11)
(24, 32, 20, 3)
(7, 32, 20, 3)
Epoch 1/100
1/6 [====>.........................] - ETA: 2s - loss: 0.0000e+00 - accuracy: 1.00006/6 [==============================] - 1s 51ms/step - loss: 3.4876 - accuracy: 0.9583 - val_loss: 0.0303 - val_accuracy: 1.0000
…
1/6 [====>.........................] - ETA: 0s - loss: 0.0000e+00 - accuracy: 1.00006/6 [==============================] - 0s 18ms/step - loss: 0.0000e+00 - accuracy: 1.0000 - val_loss: 1.3624e-07 - val_accuracy: 1.0000
dig-s0
File Exists
dig-s1
a_output_actual/dig-s1
File Exists
Model: "sequential_1"
_________________________________________________________________
 Layer (type)                Output Shape              Param #   
=================================================================
 batch_normalization_1 (Batc  (None, 32, 20, 3)        12        
 hNormalization)                                                 
                                                                 
 conv2d_3 (Conv2D)           (None, 32, 20, 32)        896       
                                                                 
 max_pooling2d_3 (MaxPooling  (None, 16, 10, 32)       0         
 2D)                                                             
                                                                 
 conv2d_4 (Conv2D)           (None, 16, 10, 64)        18496     
                                                                 
 max_pooling2d_4 (MaxPooling  (None, 8, 5, 64)         0         
 2D)                                                             
                                                                 
 conv2d_5 (Conv2D)           (None, 8, 5, 64)          36928     
                                                                 
 max_pooling2d_5 (MaxPooling  (None, 4, 2, 64)         0         
 2D)                                                             
                                                                 
 flatten_1 (Flatten)         (None, 512)               0         
                                                                 
 dense_2 (Dense)             (None, 256)               131328    
                                                                 
 dense_3 (Dense)             (None, 11)                2827      
                                                                 
=================================================================
Total params: 190,487
Trainable params: 190,481
Non-trainable params: 6
_________________________________________________________________
31
(31, 32, 20, 3)
(31, 11)
(24, 32, 20, 3)
(7, 32, 20, 3)
Epoch 1/100
1/6 [====>.........................] - ETA: 2s - loss: 0.0000e+00 - accuracy: 1.00006/6 [==============================] - 1s 44ms/step - loss: 4.2216 - accuracy: 0.9583 - val_loss: 0.0000e+00 - val_accuracy: 1.0000
…
20220313	31	93	3.1142262741923332e-06	8.804186109045986e-06
20220313	31	94	1.3411033705779118e-07	2.5270133846788667e-05
20220313	31	95	9.4703420472797e-05	0.0
20220313	31	96	0.0	0.0
20220313	31	97	4.967053435223079e-09	0.0
20220313	31	98	7.450574202039206e-08	0.0
20220313	31	99	0.0	0.12261148542165756
20220313	31	100	0.0	0.0
dig-s1
File Exists
dig-s2
a_output_actual/dig-s2
File Exists
Model: "sequential_2"
_________________________________________________________________
 Layer (type)                Output Shape              Param #   
=================================================================
 batch_normalization_2 (Batc  (None, 32, 20, 3)        12        
 hNormalization)                                                 
                                                                 
 conv2d_6 (Conv2D)           (None, 32, 20, 32)        896       
                                                                 
 max_pooling2d_6 (MaxPooling  (None, 16, 10, 32)       0         
 2D)                                                             
                                                                 
 conv2d_7 (Conv2D)           (None, 16, 10, 32)        9248      
                                                                 
 max_pooling2d_7 (MaxPooling  (None, 8, 5, 32)         0         
 2D)                                                             
                                                                 
 conv2d_8 (Conv2D)           (None, 8, 5, 32)          9248      
                                                                 
 max_pooling2d_8 (MaxPooling  (None, 4, 2, 32)         0         
 2D)                                                             
                                                                 
 flatten_2 (Flatten)         (None, 256)               0         
                                                                 
 dense_4 (Dense)             (None, 256)               65792     
                                                                 
 dense_5 (Dense)             (None, 11)                2827      
                                                                 
=================================================================
Total params: 88,023
Trainable params: 88,017
Non-trainable params: 6
_________________________________________________________________
31
(31, 32, 20, 3)
(31, 11)
(24, 32, 20, 3)
(7, 32, 20, 3)
Epoch 1/100
1/6 [====>.........................] - ETA: 2s - loss: 0.0000e+00 - accuracy: 1.00006/6 [==============================] - 1s 41ms/step - loss: 4.1745 - accuracy: 0.9167 - val_loss: 0.0000e+00 - val_accuracy: 1.0000
…
20220313	31	96	0.00254929531365633	0.000921303522773087
20220313	31	97	1.291432880634602e-07	0.0
20220313	31	98	0.23310334980487823	1.5497129197683535e-06
20220313	31	99	0.0	2.3823068141937256
20220313	31	100	0.0	4.585765361785889
dig-s2
File Exists
ziffer_resize/0_dig4_20220224-201651.jpg 0 7
ziffer_resize/0_dig5_20220221-120100.jpg 0 7
dig-s3
a_output_actual/dig-s3
File Exists
Model: "sequential_3"
_________________________________________________________________
 Layer (type)                Output Shape              Param #   
=================================================================
 batch_normalization_3 (Batc  (None, 32, 20, 3)        12        
 hNormalization)                                                 
                                                                 
 conv2d_9 (Conv2D)           (None, 32, 20, 32)        896       
                                                                 
 max_pooling2d_9 (MaxPooling  (None, 16, 10, 32)       0         
 2D)                                                             
                                                                 
 conv2d_10 (Conv2D)          (None, 16, 10, 32)        9248      
                                                                 
 max_pooling2d_10 (MaxPoolin  (None, 8, 5, 32)         0         
 g2D)                                                            
                                                                 
 conv2d_11 (Conv2D)          (None, 8, 5, 32)          9248      
                                                                 
 max_pooling2d_11 (MaxPoolin  (None, 4, 2, 32)         0         
 g2D)                                                            
                                                                 
 flatten_3 (Flatten)         (None, 256)               0         
                                                                 
 dense_6 (Dense)             (None, 128)               32896     
                                                                 
 dense_7 (Dense)             (None, 11)                1419      
                                                                 
=================================================================
Total params: 53,719
Trainable params: 53,713
Non-trainable params: 6
_________________________________________________________________
31
(31, 32, 20, 3)
(31, 11)
(24, 32, 20, 3)
(7, 32, 20, 3)
Epoch 1/100
1/6 [====>.........................] - ETA: 2s - loss: 0.0000e+00 - accuracy: 1.00006/6 [==============================] - 1s 43ms/step - loss: 2.5353 - accuracy: 0.9583 - val_loss: 1.5088e-05 - val_accuracy: 1.0000
…
